data/model.tflite (tflite, 1828 bytes, 4 tensors)

arith.constant f4 [2, 4]
-4.0578737 -3.3370883 1.3836524 0.43881688 4.384803 3.844597 -0.33120802 -1.1528052
00000000: 1ada 81c0 db92 55c0 861b b13f 9bac e03e
00000010: 4e50 8c40 e10d 7640 1994 a9be 1f8f 93bf

arith.constant1 f4 [2]
0.4875897 -0.4875928
00000000: 5ba5 f93e c3a5 f9be

sequential_1_1/dense_2_1/BiasAdd/ReadVariableOp f4 [4]
0.5073542 0.8352496 0.7507625 0.8465687
00000000: f7e1 013f ebd2 553f f931 403f bab8 583f

sequential_1_1/dense_2_1/MatMul f4 [4, 3]
-2.092871 0.69433403 -2.268748 2.5278585 -0.9497593 0.33806837 -0.033022046 1.0643079
0.7893706 0.3351455 1.13741 0.82731205
00000000: 99f1 05c0 e0bf 313f 2b33 11c0 6fc8 2140
00000010: 6d23 73bf 4c17 ad3e 2042 07bd 3e3b 883f
00000020: 3114 4a3f 3198 ab3e a796 913f b9ca 533f
